…
4, hsv_h=0.015, hsv_s=0.7, hsv_v=0.4, degrees=0.0, translate=0.1, scale=0.5, shear=0.0, perspective=0.0, flipud=0.0, fliplr=0.5, bgr=0.0, mosaic=1.0, mixup=0.0, copy_paste=0.1, copy_paste_mode=flip, auto_augment=randaugment, erasing=0.4, crop_fraction=1.0, cfg=None, tracker=botsort.yaml, save_dir=/home/room305/ZZF/yolov13-6000/runs/train/urr_dcra_20260720_142421_u7_strict_seed2
WARNING ⚠️ no model scale passed. Assuming scale='n'.

                   from  n    params  module                                       arguments                     
  0                  -1  1       464  ultralytics.nn.modules.conv.Conv             [3, 16, 3, 2]                 
  1                  -1  1      2368  ultralytics.nn.modules.conv.Conv             [16, 32, 3, 2, 1, 2]          
  2                  -1  1      5792  ultralytics.nn.modules.block.DSC3k2          [32, 64, 1, False, 0.25]      
  3                  -1  1      9344  ultralytics.nn.modules.conv.Conv             [64, 64, 3, 2, 1, 4]          
  4                  -1  1     20800  ultralytics.nn.modules.block.DSC3k2          [64, 128, 1, False, 0.25]     
  5                  -1  1     17792  ultralytics.nn.modules.conv.DSConv           [128, 128, 3, 2]              
  6                  -1  2    174720  ultralytics.nn.modules.block.A2C2f           [128, 128, 2, True, 4]        
  7                  -1  1     34432  ultralytics.nn.modules.conv.DSConv           [128, 256, 3, 2]              
  8                  -1  2    677120  ultralytics.nn.modules.block.A2C2f           [256, 256, 2, True, 1]        
  9           [4, 6, 8]  1    273536  ultralytics.nn.modules.block.HyperACE        [128, 128, 1, 4, True, True, 0.5, 1, 'both']
 10                  -1  1         0  torch.nn.modules.upsampling.Upsample         [None, 2, 'nearest']          
 11                   9  1     33280  ultralytics.nn.modules.block.DownsampleConv  [128]                         
 12              [6, 9]  1         1  ultralytics.nn.modules.block.FullPAD_Tunnel  []                            
 13             [4, 10]  1         1  ultralytics.nn.modules.block.FullPAD_Tunnel  []                            
 14             [8, 11]  1         1  ultralytics.nn.modules.block.FullPAD_Tunnel  []                            
 15            [14, 12]  1     28672  ultralytics.nn.modules.block.URRDCRAUp       [256, 128, 2, 3, 4, 0.2, 4, True, True, True, True, True, True, 'strict', 0.1, 1.0, True, True, True, 4.0, 1e-06]
 16            [-1, 12]  1         0  ultralytics.nn.modules.conv.Concat           [1]                           
 17                  -1  1    115328  ultralytics.nn.modules.block.DSC3k2          [384, 128, 1, True]           
 18             [-1, 9]  1         1  ultralytics.nn.modules.block.FullPAD_Tunnel  []                            
 19                  17  1         0  torch.nn.modules.upsampling.Upsample         [None, 2, 'nearest']          
 20            [-1, 13]  1         0  ultralytics.nn.modules.conv.Concat           [1]                           
 21                  -1  1     35136  ultralytics.nn.modules.block.DSC3k2          [256, 64, 1, True]            
 22                  10  1      8320  ultralytics.nn.modules.conv.Conv             [128, 64, 1, 1]               
 23            [21, 22]  1         1  ultralytics.nn.modules.block.FullPAD_Tunnel  []                            
 24                  -1  1     36992  ultralytics.nn.modules.conv.Conv             [64, 64, 3, 2]                
 25            [-1, 18]  1         0  ultralytics.nn.modules.conv.Concat           [1]                           
 26                  -1  1     90752  ultralytics.nn.modules.block.DSC3k2          [192, 128, 1, True]           
 27             [-1, 9]  1         1  ultralytics.nn.modules.block.FullPAD_Tunnel  []                            
 28                  26  1    147712  ultralytics.nn.modules.conv.Conv             [128, 128, 3, 2]              
 29            [-1, 14]  1         0  ultralytics.nn.modules.conv.Concat           [1]                           
 30                  -1  1    345344  ultralytics.nn.modules.block.DSC3k2          [384, 256, 1, True]           
 31            [-1, 11]  1         1  ultralytics.nn.modules.block.FullPAD_Tunnel  []                            
 32        [23, 27, 31]  1    431452  ultralytics.nn.modules.head.Detect           [4, [64, 128, 256]]           
YOLOv13-urr-dcra-strict summary: 651 layers, 2,489,363 parameters, 2,489,347 gradients, 6.4 GFLOPs

Transferred 901/901 items from pretrained weights
Freezing layer 'model.32.dfl.conv.weight'
[34m[1mtrain: [0mScanning /home/room305/ZZF/URPC2020half/labels/train...:   0%|          | 0/2301 [00:00<?, ?it/s][34m[1mtrain: [0mScanning /home/room305/ZZF/URPC2020half
…
